…
ScanObject - num_points: 2048, sonn_split: main_split, h5_suffix: objectdataset.h5, split: all, class_choice: {4: 0, 8: 1, 7: 2, 12: 3, 13: 4}, num samples: 1255
ScanObject - num_points: 2048, sonn_split: main_split, h5_suffix: objectdataset.h5, split: all, class_choice: {0: 404, 1: 404, 2: 404, 3: 404, 11: 404}, num samples: 847
dgcnn k: 20
dgcnn emb_dims: 1024
Clf - feature encoder: DGCNN
Clf Head - num classes: 4, input dim: 2048, act: leakyrelu, dropout: 0.5
Model params count: 1.8001 M
Load weights:  <All keys matched successfully>
Classifier(
  (enco): DGCNN(
    (conv1): Sequential(
      (0): Conv2d(6, 64, kernel_size=(1, 1), stride=(1, 1), bias=False)
      (1): BatchNorm2d(64, eps=1e-05, momentum=0.1, affine=True, track_running_stats=True)
      (2): LeakyReLU(negative_slope=0.2)
    )
    (conv2): Sequential(
      (0): Conv2d(128, 64, kernel_size=(1, 1), stride=(1, 1), bias=False)
      (1): BatchNorm2d(64, eps=1e-05, momentum=0.1, affine=True, track_running_stats=True)
      (2): LeakyReLU(negative_slope=0.2)
    )
    (conv3): Sequential(
      (0): Conv2d(128, 128, kernel_size=(1, 1), stride=(1, 1), bias=False)
      (1): BatchNorm2d(128, eps=1e-05, momentum=0.1, affine=True, track_running_stats=True)
      (2): LeakyReLU(negative_slope=0.2)
    )
    (conv4): Sequential(
      (0): Conv2d(256, 256, kernel_size=(1, 1), stride=(1, 1), bias=False)
      (1): BatchNorm2d(256, eps=1e-05, momentum=0.1, affine=True, track_running_stats=True)
      (2): LeakyReLU(negative_slope=0.2)
    )
    (conv5): Sequential(
      (0): Conv1d(512, 1024, kernel_size=(1,), stride=(1,), bias=False)
      (1): BatchNorm1d(1024, eps=1e-05, momentum=0.1, affine=True, track_running_stats=True)
      (2): LeakyReLU(negative_slope=0.2)
    )
  )
  (penultimate): Sequential(
    (0): Linear(in_features=2048, out_features=512, bias=False)
    (1): BatchNorm1d(512, eps=1e-05, momentum=0.1, affine=True, track_running_stats=True)
    (2): LeakyReLU(negative_slope=0.2)
    (3): Dropout(p=0.5, inplace=False)
    (4): Linear(in_features=512, out_features=256, bias=False)
  )
  (head): Sequential(
    (0): BatchNorm1d(256, eps=1e-05, momentum=0.1, affine=True, track_running_stats=True)
    (1): LeakyReLU(negative_slope=0.2)
    (2): Dropout(p=0.5, inplace=False)
    (3): Linear(in_features=256, out_features=4, bias=True)
  )
)
  0% 0/788 [00:00<?, ?it/s]/usr/lib/python3.10/multiprocessing/popen_fork.py:66: RuntimeWarning: os.fork() was called. os.fork() is incompatible with multithreaded code, and JAX is multithreaded, so this will likely lead to a deadlock.
  self.pid = os.fork()
100% 788/788 [00:18<00:00, 43.27it/s]
100% 1255/1255 [00:28<00:00, 43.66it/s]
100% 847/847 [00:19<00:00, 44.12it/s]
…
